{
    "format": "layers-model",
    "generatedBy": "keras v3.5.0",
    "convertedBy": "TensorFlow.js Converter v4.22.0",
    "modelTopology": {
        "keras_version": "3.5.0",
        "backend": "tensorflow",
        "model_config": {
            "class_name": "Functional",
            "config": {
                "name": "U-Net",
                "trainable": true,
                "layers": [
                    {
                        "class_name": "InputLayer",
                        "config": {
                            "batchInputShape": [
                                null,
                                112,
                                112,
                                3
                            ],
                            "dtype": "float32",
                            "sparse": false,
                            "name": "input_layer_1"
                        }
                    },
                    {
                        "class_name": "Conv2D",
                        "config": {
                            "name": "block1_conv1",
                            "trainable": true,
                            "dtype": {
                                "module": "keras",
                                "class_name": "DTypePolicy",
                                "config": {
                                    "name": "float32"
                                },
                                "registered_name": null
                            },
                            "filters": 64,
                            "kernel_size": [
                                3,
                                3
                            ],
                            "strides": [
                                1,
                                1
                            ],
                            "padding": "same",
                            "data_format": "channels_last",
                            "dilation_rate": [
                                1,
                                1
                            ],
                            "groups": 1,
                            "activation": "relu",
                            "use_bias": true,
                            "kernel_initializer": {
                                "module": "keras.initializers",
                                "class_name": "GlorotUniform",
                                "config": {
                                    "seed": null
                                },
                                "registered_name": null
                            },
                            "bias_initializer": {
                                "module": "keras.initializers",
                                "class_name": "Zeros",
                                "config": {},
                                "registered_name": null
                            },
                            "kernel_regularizer": null,
                            "bias_regularizer": null,
                            "activity_regularizer": null,
                            "kernel_constraint": null,
                            "bias_constraint": null
                        },
                        "name": "block1_conv1",
                        "inbound_nodes": [
                            {
                                "args": [
                                    {
                                        "class_name": "__keras_tensor__",
                                        "config": {
                                            "shape": [
                                                null,
                                                112,
                                                112,
                                                3
                                            ],
                                            "dtype": "float32",
                                            "keras_history": [
                                                "input_layer_1",
                                                0,
                                                0
                                            ]
                                        }
                                    }
                                ],
                                "kwargs": {}
                            }
                        ]
                    },
                    {
                        "class_name": "Conv2D",
                        "config": {
                            "name": "block1_conv2",
                            "trainable": true,
                            "dtype": {
                                "module": "keras",
                                "class_name": "DTypePolicy",
                                "config": {
                                    "name": "float32"
                                },
                                "registered_name": null
                            },
                            "filters": 64,
                            "kernel_size": [
                                3,
                                3
                            ],
                            "strides": [
                                1,
                                1
                            ],
                            "padding": "same",
                            "data_format": "channels_last",
                            "dilation_rate": [
                                1,
                                1
                            ],
                            "groups": 1,
                            "activation": "relu",
                            "use_bias": true,
                            "kernel_initializer": {
                                "module": "keras.initializers",
                                "class_name": "GlorotUniform",
                                "config": {
                                    "seed": null
                                },
                                "registered_name": null
                            },
                            "bias_initializer": {
                                "module": "keras.initializers",
                                "class_name": "Zeros",
                                "config": {},
                                "registered_name": null
                            },
                            "kernel_regularizer": null,
                            "bias_regularizer": null,
                            "activity_regularizer": null,
                            "kernel_constraint": null,
                            "bias_constraint": null
                        },
                        "name": "block1_conv2",
                        "inbound_nodes": [
                            {
                                "args": [
                                    {
                                        "class_name": "__keras_tensor__",
                                        "config": {
                                            "shape": [
                                                null,
                                                112,
                                                112,
                                                64
                                            ],
                                            "dtype": "float32",
                                            "keras_history": [
                                                "block1_conv1",
                                                0,
                                                0
                                            ]
                                        }
                                    }
                                ],
                                "kwargs": {}
                            }
                        ]
                    },
                    {
                        "class_name": "MaxPooling2D",
                        "config": {
                            "name": "block1_pool",
                            "trainable": true,
                            "dtype": {
                                "module": "keras",
                                "class_name": "DTypePolicy",
                                "config": {
                                    "name": "float32"
                                },
                                "registered_name": null
                            },
                            "pool_size": [
                                2,
                                2
                            ],
                            "padding": "valid",
                            "strides": [
                                2,
                                2
                            ],
                            "data_format": "channels_last"
                        },
                        "name": "block1_pool",
                        "inbound_nodes": [
                            {
                                "args": [
                                    {
                                        "class_name": "__keras_tensor__",
                                        "config": {
                                            "shape": [
                                                null,
                                                112,
                                                112,
                                                64
                                            ],
                                            "dtype": "float32",
                                            "keras_history": [
                                                "block1_conv2",
                                                0,
                                                0
                                            ]
                                        }
                                    }
                                ],
                                "kwargs": {}
                            }
                        ]
                    },
                    {
                        "class_name": "Conv2D",
                        "config": {
                            "name": "block2_conv1",
                            "trainable": true,
                            "dtype": {
                                "module": "keras",
                                "class_name": "DTypePolicy",
                                "config": {
                                    "name": "float32"
                                },
                                "registered_name": null
                            },
                            "filters": 128,
                            "kernel_size": [
                                3,
                                3
                            ],
                            "strides": [
                                1,
                                1
                            ],
                            "padding": "same",
                            "data_format": "channels_last",
                            "dilation_rate": [
                                1,
                                1
                            ],
                            "groups": 1,
                            "activation": "relu",
                            "use_bias": true,
                            "kernel_initializer": {
                                "module": "keras.initializers",
                                "class_name": "GlorotUniform",
                                "config": {
                                    "seed": null
                                },
                                "registered_name": null
                            },
                            "bias_initializer": {
                                "module": "keras.initializers",
                                "class_name": "Zeros",
                                "config": {},
                                "registered_name": null
                            },
                            "kernel_regularizer": null,
                            "bias_regularizer": null,
                            "activity_regularizer": null,
                            "kernel_constraint": null,
                            "bias_constraint": null
                        },
                        "name": "block2_conv1",
                        "inbound_nodes": [
                            {
                                "args": [
                                    {
                                        "class_name": "__keras_tensor__",
                                        "config": {
                                            "shape": [
                                                null,
                                                56,
                                                56,
                                                64
                                            ],
                                            "dtype": "float32",
                                            "keras_history": [
                                                "block1_pool",
                                                0,
                                                0
                                            ]
                                        }
                                    }
                                ],
                                "kwargs": {}
                            }
                        ]
                    },
                    {
                        "class_name": "Conv2D",
                        "config": {
                            "name": "block2_conv2",
                            "trainable": true,
                            "dtype": {
                                "module": "keras",
                                "class_name": "DTypePolicy",
                                "config": {
                                    "name": "float32"
                                },
                                "registered_name": null
                            },
                            "filters": 128,
                            "kernel_size": [
                                3,
                                3
                            ],
                            "strides": [
                                1,
                                1
                            ],
                            "padding": "same",
                            "data_format": "channels_last",
                            "dilation_rate": [
                                1,
                                1
                            ],
                            "groups": 1,
                            "activation": "relu",
                            "use_bias": true,
                            "kernel_initializer": {
                                "module": "keras.initializers",
                                "class_name": "GlorotUniform",
                                "config": {
                                    "seed": null
                                },
                                "registered_name": null
                            },
                            "bias_initializer": {
                                "module": "keras.initializers",
                                "class_name": "Zeros",
                                "config": {},
                                "registered_name": null
                            },
                            "kernel_regularizer": null,
                            "bias_regularizer": null,
                            "activity_regularizer": null,
                            "kernel_constraint": null,
                            "bias_constraint": null
                        },
                        "name": "block2_conv2",
                        "inbound_nodes": [
                            {
                                "args": [
                                    {
                                        "class_name": "__keras_tensor__",
                                        "config": {
                                            "shape": [
                                                null,
                                                56,
                                                56,
                                                128
                                            ],
                                            "dtype": "float32",
                                            "keras_history": [
                                                "block2_conv1",
                                                0,
                                                0
                                            ]
                                        }
                                    }
                                ],
                                "kwargs": {}
                            }
                        ]
                    },
                    {
                        "class_name": "MaxPooling2D",
                        "config": {
                            "name": "block2_pool",
                            "trainable": true,
                            "dtype": {
                                "module": "keras",
                                "class_name": "DTypePolicy",
                                "config": {
                                    "name": "float32"
                                },
                                "registered_name": null
                            },
                            "pool_size": [
                                2,
                                2
                            ],
                            "padding": "valid",
                            "strides": [
                                2,
                                2
                            ],
                            "data_format": "channels_last"
                        },
                        "name": "block2_pool",
                        "inbound_nodes": [
                            {
                                "args": [
                                    {
                                        "class_name": "__keras_tensor__",
                                        "config": {
                                            "shape": [
                                                null,
                                                56,
                                                56,
                                                128
                                            ],
                                            "dtype": "float32",
                                            "keras_history": [
                                                "block2_conv2",
                                                0,
                                                0
                                            ]
                                        }
                                    }
                                ],
                                "kwargs": {}
                            }
                        ]
                    },
                    {
                        "class_name": "Conv2D",
                        "config": {
                            "name": "block3_conv1",
                            "trainable": true,
                            "dtype": {
                                "module": "keras",
                                "class_name": "DTypePolicy",
                                "config": {
                                    "name": "float32"
                                },
                                "registered_name": null
                            },
                            "filters": 256,
                            "kernel_size": [
                                3,
                                3
                            ],
                            "strides": [
                                1,
                                1
                            ],
                            "padding": "same",
                            "data_format": "channels_last",
                            "dilation_rate": [
                                1,
                                1
                            ],
                            "groups": 1,
                            "activation": "relu",
                            "use_bias": true,
                            "kernel_initializer": {
                                "module": "keras.initializers",
                                "class_name": "GlorotUniform",
                                "config": {
                                    "seed": null
                                },
                                "registered_name": null
                            },
                            "bias_initializer": {
                                "module": "keras.initializers",
                                "class_name": "Zeros",
                                "config": {},
                                "registered_name": null
                            },
                            "kernel_regularizer": null,
                            "bias_regularizer": null,
                            "activity_regularizer": null,
                            "kernel_constraint": null,
                            "bias_constraint": null
                        },
                        "name": "block3_conv1",
                        "inbound_nodes": [
                            {
                                "args": [
                                    {
                                        "class_name": "__keras_tensor__",
                                        "config": {
                                            "shape": [
                                                null,
                                                28,
                                                28,
                                                128
                                            ],
                                            "dtype": "float32",
                                            "keras_history": [
                                                "block2_pool",
                                                0,
                                                0
                                            ]
                                        }
                                    }
                                ],
                                "kwargs": {}
                            }
                        ]
                    },
                    {
                        "class_name": "Conv2D",
                        "config": {
                            "name": "block3_conv2",
                            "trainable": true,
                            "dtype": {
                                "module": "keras",
                                "class_name": "DTypePolicy",
                                "config": {
                                    "name": "float32"
                                },
                                "registered_name": null
                            },
                            "filters": 256,
                            "kernel_size": [
                                3,
                                3
                            ],
                            "strides": [
                                1,
                                1
                            ],
                            "padding": "same",
                            "data_format": "channels_last",
                            "dilation_rate": [
                                1,
                                1
                            ],
                            "groups": 1,
                            "activation": "relu",
                            "use_bias": true,
                            "kernel_initializer": {
                                "module": "keras.initializers",
                                "class_name": "GlorotUniform",
                                "config": {
                                    "seed": null
                                },
                                "registered_name": null
                            },
                            "bias_initializer": {
                                "module": "keras.initializers",
                                "class_name": "Zeros",
                                "config": {},
                                "registered_name": null
                            },
                            "kernel_regularizer": null,
                            "bias_regularizer": null,
                            "activity_regularizer": null,
                            "kernel_constraint": null,
                            "bias_constraint": null
                        },
                        "name": "block3_conv2",
                        "inbound_nodes": [
                            {
                                "args": [
                                    {
                                        "class_name": "__keras_tensor__",
                                        "config": {
                                            "shape": [
                                                null,
                                                28,
                                                28,
                                                256
                                            ],
                                            "dtype": "float32",
                                            "keras_history": [
                                                "block3_conv1",
                                                0,
                                                0
                                            ]
                                        }
                                    }
                                ],
                                "kwargs": {}
                            }
                        ]
                    },
                    {
                        "class_name": "Conv2D",
                        "config": {
                            "name": "block3_conv3",
                            "trainable": true,
                            "dtype": {
                                "module": "keras",
                                "class_name": "DTypePolicy",
                                "config": {
                                    "name": "float32"
                                },
                                "registered_name": null
                            },
                            "filters": 256,
                            "kernel_size": [
                                3,
                                3
                            ],
                            "strides": [
                                1,
                                1
                            ],
                            "padding": "same",
                            "data_format": "channels_last",
                            "dilation_rate": [
                                1,
                                1
                            ],
                            "groups": 1,
                            "activation": "relu",
                            "use_bias": true,
                            "kernel_initializer": {
                                "module": "keras.initializers",
                                "class_name": "GlorotUniform",
                                "config": {
                                    "seed": null
                                },
                                "registered_name": null
                            },
                            "bias_initializer": {
                                "module": "keras.initializers",
                                "class_name": "Zeros",
                                "config": {},
                                "registered_name": null
                            },
                            "kernel_regularizer": null,
                            "bias_regularizer": null,
                            "activity_regularizer": null,
                            "kernel_constraint": null,
                            "bias_constraint": null
                        },
                        "name": "block3_conv3",
                        "inbound_nodes": [
                            {
                                "args": [
                                    {
                                        "class_name": "__keras_tensor__",
                                        "config": {
                                            "shape": [
                                                null,
                                                28,
                                                28,
                                                256
                                            ],
                                            "dtype": "float32",
                                            "keras_history": [
                                                "block3_conv2",
                                                0,
                                                0
                                            ]
                                        }
                                    }
                                ],
                                "kwargs": {}
                            }
                        ]
                    },
                    {
                        "class_name": "MaxPooling2D",
                        "config": {
                            "name": "block3_pool",
                            "trainable": true,
                            "dtype": {
                                "module": "keras",
                                "class_name": "DTypePolicy",
                                "config": {
                                    "name": "float32"
                                },
                                "registered_name": null
                            },
                            "pool_size": [
                                2,
                                2
                            ],
                            "padding": "valid",
                            "strides": [
                                2,
                                2
                            ],
                            "data_format": "channels_last"
                        },
                        "name": "block3_pool",
                        "inbound_nodes": [
                            {
                                "args": [
                                    {
                                        "class_name": "__keras_tensor__",
                                        "config": {
                                            "shape": [
                                                null,
                                                28,
                                                28,
                                                256
                                            ],
                                            "dtype": "float32",
                                            "keras_history": [
                                                "block3_conv3",
                                                0,
                                                0
                                            ]
                                        }
                                    }
                                ],
                                "kwargs": {}
                            }
                        ]
                    },
                    {
                        "class_name": "Conv2D",
                        "config": {
                            "name": "block4_conv1",
                            "trainable": true,
                            "dtype": {
                                "module": "keras",
                                "class_name": "DTypePolicy",
                                "config": {
                                    "name": "float32"
                                },
                                "registered_name": null
                            },
                            "filters": 512,
                            "kernel_size": [
                                3,
                                3
                            ],
                            "strides": [
                                1,
                                1
                            ],
                            "padding": "same",
                            "data_format": "channels_last",
                            "dilation_rate": [
                                1,
                                1
                            ],
                            "groups": 1,
                            "activation": "relu",
                            "use_bias": true,
                            "kernel_initializer": {
                                "module": "keras.initializers",
                                "class_name": "GlorotUniform",
                                "config": {
                                    "seed": null
                                },
                                "registered_name": null
                            },
                            "bias_initializer": {
                                "module": "keras.initializers",
                                "class_name": "Zeros",
                                "config": {},
                                "registered_name": null
                            },
                            "kernel_regularizer": null,
                            "bias_regularizer": null,
                            "activity_regularizer": null,
                            "kernel_constraint": null,
                            "bias_constraint": null
                        },
                        "name": "block4_conv1",
                        "inbound_nodes": [
                            {
                                "args": [
                                    {
                                        "class_name": "__keras_tensor__",
                                        "config": {
                                            "shape": [
                                                null,
                                                14,
                                                14,
                                                256
                                            ],
                                            "dtype": "float32",
                                            "keras_history": [
                                                "block3_pool",
                                                0,
                                                0
                                            ]
                                        }
                                    }
                                ],
                                "kwargs": {}
                            }
                        ]
                    },
                    {
                        "class_name": "Conv2D",
                        "config": {
                            "name": "block4_conv2",
                            "trainable": true,
                            "dtype": {
                                "module": "keras",
                                "class_name": "DTypePolicy",
                                "config": {
                                    "name": "float32"
                                },
                                "registered_name": null
                            },
                            "filters": 512,
                            "kernel_size": [
                                3,
                                3
                            ],
                            "strides": [
                                1,
                                1
                            ],
                            "padding": "same",
                            "data_format": "channels_last",
                            "dilation_rate": [
                                1,
                                1
                            ],
                            "groups": 1,
                            "activation": "relu",
                            "use_bias": true,
                            "kernel_initializer": {
                                "module": "keras.initializers",
                                "class_name": "GlorotUniform",
                                "config": {
                                    "seed": null
                                },
                                "registered_name": null
                            },
                            "bias_initializer": {
                                "module": "keras.initializers",
                                "class_name": "Zeros",
                                "config": {},
                                "registered_name": null
                            },
                            "kernel_regularizer": null,
                            "bias_regularizer": null,
                            "activity_regularizer": null,
                            "kernel_constraint": null,
                            "bias_constraint": null
                        },
                        "name": "block4_conv2",
                        "inbound_nodes": [
                            {
                                "args": [
                                    {
                                        "class_name": "__keras_tensor__",
                                        "config": {
                                            "shape": [
                                                null,
                                                14,
                                                14,
                                                512
                                            ],
                                            "dtype": "float32",
                                            "keras_history": [
                                                "block4_conv1",
                                                0,
                                                0
                                            ]
                                        }
                                    }
                                ],
                                "kwargs": {}
                            }
                        ]
                    },
                    {
                        "class_name": "Conv2D",
                        "config": {
                            "name": "block4_conv3",
                            "trainable": true,
                            "dtype": {
                                "module": "keras",
                                "class_name": "DTypePolicy",
                                "config": {
                                    "name": "float32"
                                },
                                "registered_name": null
                            },
                            "filters": 512,
                            "kernel_size": [
                                3,
                                3
                            ],
                            "strides": [
                                1,
                                1
                            ],
                            "padding": "same",
                            "data_format": "channels_last",
                            "dilation_rate": [
                                1,
                                1
                            ],
                            "groups": 1,
                            "activation": "relu",
                            "use_bias": true,
                            "kernel_initializer": {
                                "module": "keras.initializers",
                                "class_name": "GlorotUniform",
                                "config": {
                                    "seed": null
                                },
                                "registered_name": null
                            },
                            "bias_initializer": {
                                "module": "keras.initializers",
                                "class_name": "Zeros",
                                "config": {},
                                "registered_name": null
                            },
                            "kernel_regularizer": null,
                            "bias_regularizer": null,
                            "activity_regularizer": null,
                            "kernel_constraint": null,
                            "bias_constraint": null
                        },
                        "name": "block4_conv3",
                        "inbound_nodes": [
                            {
                                "args": [
                                    {
                                        "class_name": "__keras_tensor__",
                                        "config": {
                                            "shape": [
                                                null,
                                                14,
                                                14,
                                                512
                                            ],
                                            "dtype": "float32",
                                            "keras_history": [
                                                "block4_conv2",
                                                0,
                                                0
                                            ]
                                        }
                                    }
                                ],
                                "kwargs": {}
                            }
                        ]
                    },
                    {
                        "class_name": "MaxPooling2D",
                        "config": {
                            "name": "block4_pool",
                            "trainable": true,
                            "dtype": {
                                "module": "keras",
                                "class_name": "DTypePolicy",
                                "config": {
                                    "name": "float32"
                                },
                                "registered_name": null
                            },
                            "pool_size": [
                                2,
                                2
                            ],
                            "padding": "valid",
                            "strides": [
                                2,
                                2
                            ],
                            "data_format": "channels_last"
                        },
                        "name": "block4_pool",
                        "inbound_nodes": [
                            {
                                "args": [
                                    {
                                        "class_name": "__keras_tensor__",
                                        "config": {
                                            "shape": [
                                                null,
                                                14,
                                                14,
                                                512
                                            ],
                                            "dtype": "float32",
                                            "keras_history": [
                                                "block4_conv3",
                                                0,
                                                0
                                            ]
                                        }
                                    }
                                ],
                                "kwargs": {}
                            }
                        ]
                    },
                    {
                        "class_name": "Conv2D",
                        "config": {
                            "name": "block5_conv1",
                            "trainable": true,
                            "dtype": {
                                "module": "keras",
                                "class_name": "DTypePolicy",
                                "config": {
                                    "name": "float32"
                                },
                                "registered_name": null
                            },
                            "filters": 512,
                            "kernel_size": [
                                3,
                                3
                            ],
                            "strides": [
                                1,
                                1
                            ],
                            "padding": "same",
                            "data_format": "channels_last",
                            "dilation_rate": [
                                1,
                                1
                            ],
                            "groups": 1,
                            "activation": "relu",
                            "use_bias": true,
                            "kernel_initializer": {
                                "module": "keras.initializers",
                                "class_name": "GlorotUniform",
                                "config": {
                                    "seed": null
                                },
                                "registered_name": null
                            },
                            "bias_initializer": {
                                "module": "keras.initializers",
                                "class_name": "Zeros",
                                "config": {},
                                "registered_name": null
                            },
                            "kernel_regularizer": null,
                            "bias_regularizer": null,
                            "activity_regularizer": null,
                            "kernel_constraint": null,
                            "bias_constraint": null
                        },
                        "name": "block5_conv1",
                        "inbound_nodes": [
                            {
                                "args": [
                                    {
                                        "class_name": "__keras_tensor__",
                                        "config": {
                                            "shape": [
                                                null,
                                                7,
                                                7,
                                                512
                                            ],
                                            "dtype": "float32",
                                            "keras_history": [
                                                "block4_pool",
                                                0,
                                                0
                                            ]
                                        }
                                    }
                                ],
                                "kwargs": {}
                            }
                        ]
                    },
                    {
                        "class_name": "Conv2D",
                        "config": {
                            "name": "block5_conv2",
                            "trainable": true,
                            "dtype": {
                                "module": "keras",
                                "class_name": "DTypePolicy",
                                "config": {
                                    "name": "float32"
                                },
                                "registered_name": null
                            },
                            "filters": 512,
                            "kernel_size": [
                                3,
                                3
                            ],
                            "strides": [
                                1,
                                1
                            ],
                            "padding": "same",
                            "data_format": "channels_last",
                            "dilation_rate": [
                                1,
                                1
                            ],
                            "groups": 1,
                            "activation": "relu",
                            "use_bias": true,
                            "kernel_initializer": {
                                "module": "keras.initializers",
                                "class_name": "GlorotUniform",
                                "config": {
                                    "seed": null
                                },
                                "registered_name": null
                            },
                            "bias_initializer": {
                                "module": "keras.initializers",
                                "class_name": "Zeros",
                                "config": {},
                                "registered_name": null
                            },
                            "kernel_regularizer": null,
                            "bias_regularizer": null,
                            "activity_regularizer": null,
                            "kernel_constraint": null,
                            "bias_constraint": null
                        },
                        "name": "block5_conv2",
                        "inbound_nodes": [
                            {
                                "args": [
                                    {
                                        "class_name": "__keras_tensor__",
                                        "config": {
                                            "shape": [
                                                null,
                                                7,
                                                7,
                                                512
                                            ],
                                            "dtype": "float32",
                                            "keras_history": [
                                                "block5_conv1",
                                                0,
                                                0
                                            ]
                                        }
                                    }
                                ],
                                "kwargs": {}
                            }
                        ]
                    },
                    {
                        "class_name": "Conv2D",
                        "config": {
                            "name": "block5_conv3",
                            "trainable": true,
                            "dtype": {
                                "module": "keras",
                                "class_name": "DTypePolicy",
                                "config": {
                                    "name": "float32"
                                },
                                "registered_name": null
                            },
                            "filters": 512,
                            "kernel_size": [
                                3,
                                3
                            ],
                            "strides": [
                                1,
                                1
                            ],
                            "padding": "same",
                            "data_format": "channels_last",
                            "dilation_rate": [
                                1,
                                1
                            ],
                            "groups": 1,
                            "activation": "relu",
                            "use_bias": true,
                            "kernel_initializer": {
                                "module": "keras.initializers",
                                "class_name": "GlorotUniform",
                                "config": {
                                    "seed": null
                                },
                                "registered_name": null
                            },
                            "bias_initializer": {
                                "module": "keras.initializers",
                                "class_name": "Zeros",
                                "config": {},
                                "registered_name": null
                            },
                            "kernel_regularizer": null,
                            "bias_regularizer": null,
                            "activity_regularizer": null,
                            "kernel_constraint": null,
                            "bias_constraint": null
                        },
                        "name": "block5_conv3",
                        "inbound_nodes": [
                            {
                                "args": [
                                    {
                                        "class_name": "__keras_tensor__",
                                        "config": {
                                            "shape": [
                                                null,
                                                7,
                                                7,
                                                512
                                            ],
                                            "dtype": "float32",
                                            "keras_history": [
                                                "block5_conv2",
                                                0,
                                                0
                                            ]
                                        }
                                    }
                                ],
                                "kwargs": {}
                            }
                        ]
                    },
                    {
                        "class_name": "Conv2D",
                        "config": {
                            "name": "conv2d",
                            "trainable": true,
                            "dtype": {
                                "module": "keras",
                                "class_name": "DTypePolicy",
                                "config": {
                                    "name": "float32"
                                },
                                "registered_name": null
                            },
                            "filters": 1024,
                            "kernel_size": [
                                3,
                                3
                            ],
                            "strides": [
                                1,
                                1
                            ],
                            "padding": "same",
                            "data_format": "channels_last",
                            "dilation_rate": [
                                1,
                                1
                            ],
                            "groups": 1,
                            "activation": "relu",
                            "use_bias": true,
                            "kernel_initializer": {
                                "module": "keras.initializers",
                                "class_name": "GlorotUniform",
                                "config": {
                                    "seed": null
                                },
                                "registered_name": null
                            },
                            "bias_initializer": {
                                "module": "keras.initializers",
                                "class_name": "Zeros",
                                "config": {},
                                "registered_name": null
                            },
                            "kernel_regularizer": null,
                            "bias_regularizer": null,
                            "activity_regularizer": null,
                            "kernel_constraint": null,
                            "bias_constraint": null
                        },
                        "name": "conv2d",
                        "inbound_nodes": [
                            {
                                "args": [
                                    {
                                        "class_name": "__keras_tensor__",
                                        "config": {
                                            "shape": [
                                                null,
                                                7,
                                                7,
                                                512
                                            ],
                                            "dtype": "float32",
                                            "keras_history": [
                                                "block5_conv3",
                                                0,
                                                0
                                            ]
                                        }
                                    }
                                ],
                                "kwargs": {}
                            }
                        ]
                    },
                    {
                        "class_name": "Conv2D",
                        "config": {
                            "name": "conv2d_1",
                            "trainable": true,
                            "dtype": {
                                "module": "keras",
                                "class_name": "DTypePolicy",
                                "config": {
                                    "name": "float32"
                                },
                                "registered_name": null
                            },
                            "filters": 1024,
                            "kernel_size": [
                                3,
                                3
                            ],
                            "strides": [
                                1,
                                1
                            ],
                            "padding": "same",
                            "data_format": "channels_last",
                            "dilation_rate": [
                                1,
                                1
                            ],
                            "groups": 1,
                            "activation": "relu",
                            "use_bias": true,
                            "kernel_initializer": {
                                "module": "keras.initializers",
                                "class_name": "GlorotUniform",
                                "config": {
                                    "seed": null
                                },
                                "registered_name": null
                            },
                            "bias_initializer": {
                                "module": "keras.initializers",
                                "class_name": "Zeros",
                                "config": {},
                                "registered_name": null
                            },
                            "kernel_regularizer": null,
                            "bias_regularizer": null,
                            "activity_regularizer": null,
                            "kernel_constraint": null,
                            "bias_constraint": null
                        },
                        "name": "conv2d_1",
                        "inbound_nodes": [
                            {
                                "args": [
                                    {
                                        "class_name": "__keras_tensor__",
                                        "config": {
                                            "shape": [
                                                null,
                                                7,
                                                7,
                                                1024
                                            ],
                                            "dtype": "float32",
                                            "keras_history": [
                                                "conv2d",
                                                0,
                                                0
                                            ]
                                        }
                                    }
                                ],
                                "kwargs": {}
                            }
                        ]
                    },
                    {
                        "class_name": "Conv2DTranspose",
                        "config": {
                            "name": "conv2d_transpose",
                            "trainable": true,
                            "dtype": {
                                "module": "keras",
                                "class_name": "DTypePolicy",
                                "config": {
                                    "name": "float32"
                                },
                                "registered_name": null
                            },
                            "filters": 512,
                            "kernel_size": [
                                2,
                                2
                            ],
                            "strides": [
                                2,
                                2
                            ],
                            "padding": "same",
                            "data_format": "channels_last",
                            "dilation_rate": [
                                1,
                                1
                            ],
                            "activation": "linear",
                            "use_bias": true,
                            "kernel_initializer": {
                                "module": "keras.initializers",
                                "class_name": "GlorotUniform",
                                "config": {
                                    "seed": null
                                },
                                "registered_name": null
                            },
                            "bias_initializer": {
                                "module": "keras.initializers",
                                "class_name": "Zeros",
                                "config": {},
                                "registered_name": null
                            },
                            "kernel_regularizer": null,
                            "bias_regularizer": null,
                            "activity_regularizer": null,
                            "kernel_constraint": null,
                            "bias_constraint": null
                        },
                        "name": "conv2d_transpose",
                        "inbound_nodes": [
                            {
                                "args": [
                                    {
                                        "class_name": "__keras_tensor__",
                                        "config": {
                                            "shape": [
                                                null,
                                                7,
                                                7,
                                                1024
                                            ],
                                            "dtype": "float32",
                                            "keras_history": [
                                                "conv2d_1",
                                                0,
                                                0
                                            ]
                                        }
                                    }
                                ],
                                "kwargs": {}
                            }
                        ]
                    },
                    {
                        "class_name": "Resizing",
                        "config": {
                            "name": "resizing",
                            "trainable": true,
                            "dtype": {
                                "module": "keras",
                                "class_name": "DTypePolicy",
                                "config": {
                                    "name": "float32"
                                },
                                "registered_name": null
                            },
                            "height": 14,
                            "width": 14,
                            "interpolation": "bilinear",
                            "crop_to_aspect_ratio": false,
                            "pad_to_aspect_ratio": false,
                            "fill_mode": "constant",
                            "fill_value": 0,
                            "data_format": "channels_last"
                        },
                        "name": "resizing",
                        "inbound_nodes": [
                            {
                                "args": [
                                    {
                                        "class_name": "__keras_tensor__",
                                        "config": {
                                            "shape": [
                                                null,
                                                7,
                                                7,
                                                512
                                            ],
                                            "dtype": "float32",
                                            "keras_history": [
                                                "block5_conv3",
                                                0,
                                                0
                                            ]
                                        }
                                    }
                                ],
                                "kwargs": {}
                            }
                        ]
                    },
                    {
                        "class_name": "Concatenate",
                        "config": {
                            "name": "concatenate",
                            "trainable": true,
                            "dtype": {
                                "module": "keras",
                                "class_name": "DTypePolicy",
                                "config": {
                                    "name": "float32"
                                },
                                "registered_name": null
                            },
                            "axis": -1
                        },
                        "name": "concatenate",
                        "inbound_nodes": [
                            {
                                "args": [
                                    [
                                        {
                                            "class_name": "__keras_tensor__",
                                            "config": {
                                                "shape": [
                                                    null,
                                                    14,
                                                    14,
                                                    512
                                                ],
                                                "dtype": "float32",
                                                "keras_history": [
                                                    "conv2d_transpose",
                                                    0,
                                                    0
                                                ]
                                            }
                                        },
                                        {
                                            "class_name": "__keras_tensor__",
                                            "config": {
                                                "shape": [
                                                    null,
                                                    14,
                                                    14,
                                                    512
                                                ],
                                                "dtype": "float32",
                                                "keras_history": [
                                                    "resizing",
                                                    0,
                                                    0
                                                ]
                                            }
                                        }
                                    ]
                                ],
                                "kwargs": {}
                            }
                        ]
                    },
                    {
                        "class_name": "Conv2D",
                        "config": {
                            "name": "conv2d_2",
                            "trainable": true,
                            "dtype": {
                                "module": "keras",
                                "class_name": "DTypePolicy",
                                "config": {
                                    "name": "float32"
                                },
                                "registered_name": null
                            },
                            "filters": 512,
                            "kernel_size": [
                                3,
                                3
                            ],
                            "strides": [
                                1,
                                1
                            ],
                            "padding": "same",
                            "data_format": "channels_last",
                            "dilation_rate": [
                                1,
                                1
                            ],
                            "groups": 1,
                            "activation": "relu",
                            "use_bias": true,
                            "kernel_initializer": {
                                "module": "keras.initializers",
                                "class_name": "GlorotUniform",
                                "config": {
                                    "seed": null
                                },
                                "registered_name": null
                            },
                            "bias_initializer": {
                                "module": "keras.initializers",
                                "class_name": "Zeros",
                                "config": {},
                                "registered_name": null
                            },
                            "kernel_regularizer": null,
                            "bias_regularizer": null,
                            "activity_regularizer": null,
                            "kernel_constraint": null,
                            "bias_constraint": null
                        },
                        "name": "conv2d_2",
                        "inbound_nodes": [
                            {
                                "args": [
                                    {
                                        "class_name": "__keras_tensor__",
                                        "config": {
                                            "shape": [
                                                null,
                                                14,
                                                14,
                                                1024
                                            ],
                                            "dtype": "float32",
                                            "keras_history": [
                                                "concatenate",
                                                0,
                                                0
                                            ]
                                        }
                                    }
                                ],
                                "kwargs": {}
                            }
                        ]
                    },
                    {
                        "class_name": "Conv2D",
                        "config": {
                            "name": "conv2d_3",
                            "trainable": true,
                            "dtype": {
                                "module": "keras",
                                "class_name": "DTypePolicy",
                                "config": {
                                    "name": "float32"
                                },
                                "registered_name": null
                            },
                            "filters": 512,
                            "kernel_size": [
                                3,
                                3
                            ],
                            "strides": [
                                1,
                                1
                            ],
                            "padding": "same",
                            "data_format": "channels_last",
                            "dilation_rate": [
                                1,
                                1
                            ],
                            "groups": 1,
                            "activation": "relu",
                            "use_bias": true,
                            "kernel_initializer": {
                                "module": "keras.initializers",
                                "class_name": "GlorotUniform",
                                "config": {
                                    "seed": null
                                },
                                "registered_name": null
                            },
                            "bias_initializer": {
                                "module": "keras.initializers",
                                "class_name": "Zeros",
                                "config": {},
                                "registered_name": null
                            },
                            "kernel_regularizer": null,
                            "bias_regularizer": null,
                            "activity_regularizer": null,
                            "kernel_constraint": null,
                            "bias_constraint": null
                        },
                        "name": "conv2d_3",
                        "inbound_nodes": [
                            {
                                "args": [
                                    {
                                        "class_name": "__keras_tensor__",
                                        "config": {
                                            "shape": [
                                                null,
                                                14,
                                                14,
                                                512
                                            ],
                                            "dtype": "float32",
                                            "keras_history": [
                                                "conv2d_2",
                                                0,
                                                0
                                            ]
                                        }
                                    }
                                ],
                                "kwargs": {}
                            }
                        ]
                    },
                    {
                        "class_name": "Conv2DTranspose",
                        "config": {
                            "name": "conv2d_transpose_1",
                            "trainable": true,
                            "dtype": {
                                "module": "keras",
                                "class_name": "DTypePolicy",
                                "config": {
                                    "name": "float32"
                                },
                                "registered_name": null
                            },
                            "filters": 256,
                            "kernel_size": [
                                2,
                                2
                            ],
                            "strides": [
                                2,
                                2
                            ],
                            "padding": "same",
                            "data_format": "channels_last",
                            "dilation_rate": [
                                1,
                                1
                            ],
                            "activation": "linear",
                            "use_bias": true,
                            "kernel_initializer": {
                                "module": "keras.initializers",
                                "class_name": "GlorotUniform",
                                "config": {
                                    "seed": null
                                },
                                "registered_name": null
                            },
                            "bias_initializer": {
                                "module": "keras.initializers",
                                "class_name": "Zeros",
                                "config": {},
                                "registered_name": null
                            },
                            "kernel_regularizer": null,
                            "bias_regularizer": null,
                            "activity_regularizer": null,
                            "kernel_constraint": null,
                            "bias_constraint": null
                        },
                        "name": "conv2d_transpose_1",
                        "inbound_nodes": [
                            {
                                "args": [
                                    {
                                        "class_name": "__keras_tensor__",
                                        "config": {
                                            "shape": [
                                                null,
                                                14,
                                                14,
                                                512
                                            ],
                                            "dtype": "float32",
                                            "keras_history": [
                                                "conv2d_3",
                                                0,
                                                0
                                            ]
                                        }
                                    }
                                ],
                                "kwargs": {}
                            }
                        ]
                    },
                    {
                        "class_name": "Resizing",
                        "config": {
                            "name": "resizing_1",
                            "trainable": true,
                            "dtype": {
                                "module": "keras",
                                "class_name": "DTypePolicy",
                                "config": {
                                    "name": "float32"
                                },
                                "registered_name": null
                            },
                            "height": 28,
                            "width": 28,
                            "interpolation": "bilinear",
                            "crop_to_aspect_ratio": false,
                            "pad_to_aspect_ratio": false,
                            "fill_mode": "constant",
                            "fill_value": 0,
                            "data_format": "channels_last"
                        },
                        "name": "resizing_1",
                        "inbound_nodes": [
                            {
                                "args": [
                                    {
                                        "class_name": "__keras_tensor__",
                                        "config": {
                                            "shape": [
                                                null,
                                                14,
                                                14,
                                                256
                                            ],
                                            "dtype": "float32",
                                            "keras_history": [
                                                "block3_pool",
                                                0,
                                                0
                                            ]
                                        }
                                    }
                                ],
                                "kwargs": {}
                            }
                        ]
                    },
                    {
                        "class_name": "Concatenate",
                        "config": {
                            "name": "concatenate_1",
                            "trainable": true,
                            "dtype": {
                                "module": "keras",
                                "class_name": "DTypePolicy",
                                "config": {
                                    "name": "float32"
                                },
                                "registered_name": null
                            },
                            "axis": -1
                        },
                        "name": "concatenate_1",
                        "inbound_nodes": [
                            {
                                "args": [
                                    [
                                        {
                                            "class_name": "__keras_tensor__",
                                            "config": {
                                                "shape": [
                                                    null,
                                                    28,
                                                    28,
                                                    256
                                                ],
                                                "dtype": "float32",
                                                "keras_history": [
                                                    "conv2d_transpose_1",
                                                    0,
                                                    0
                                                ]
                                            }
                                        },
                                        {
                                            "class_name": "__keras_tensor__",
                                            "config": {
                                                "shape": [
                                                    null,
                                                    28,
                                                    28,
                                                    256
                                                ],
                                                "dtype": "float32",
                                                "keras_history": [
                                                    "resizing_1",
                                                    0,
                                                    0
                                                ]
                                            }
                                        }
                                    ]
                                ],
                                "kwargs": {}
                            }
                        ]
                    },
                    {
                        "class_name": "Conv2D",
                        "config": {
                            "name": "conv2d_4",
                            "trainable": true,
                            "dtype": {
                                "module": "keras",
                                "class_name": "DTypePolicy",
                                "config": {
                                    "name": "float32"
                                },
                                "registered_name": null
                            },
                            "filters": 256,
                            "kernel_size": [
                                3,
                                3
                            ],
                            "strides": [
                                1,
                                1
                            ],
                            "padding": "same",
                            "data_format": "channels_last",
                            "dilation_rate": [
                                1,
                                1
                            ],
                            "groups": 1,
                            "activation": "relu",
                            "use_bias": true,
                            "kernel_initializer": {
                                "module": "keras.initializers",
                                "class_name": "GlorotUniform",
                                "config": {
                                    "seed": null
                                },
                                "registered_name": null
                            },
                            "bias_initializer": {
                                "module": "keras.initializers",
                                "class_name": "Zeros",
                                "config": {},
                                "registered_name": null
                            },
                            "kernel_regularizer": null,
                            "bias_regularizer": null,
                            "activity_regularizer": null,
                            "kernel_constraint": null,
                            "bias_constraint": null
                        },
                        "name": "conv2d_4",
                        "inbound_nodes": [
                            {
                                "args": [
                                    {
                                        "class_name": "__keras_tensor__",
                                        "config": {
                                            "shape": [
                                                null,
                                                28,
                                                28,
                                                512
                                            ],
                                            "dtype": "float32",
                                            "keras_history": [
                                                "concatenate_1",
                                                0,
                                                0
                                            ]
                                        }
                                    }
                                ],
                                "kwargs": {}
                            }
                        ]
                    },
                    {
                        "class_name": "Conv2D",
                        "config": {
                            "name": "conv2d_5",
                            "trainable": true,
                            "dtype": {
                                "module": "keras",
                                "class_name": "DTypePolicy",
                                "config": {
                                    "name": "float32"
                                },
                                "registered_name": null
                            },
                            "filters": 256,
                            "kernel_size": [
                                3,
                                3
                            ],
                            "strides": [
                                1,
                                1
                            ],
                            "padding": "same",
                            "data_format": "channels_last",
                            "dilation_rate": [
                                1,
                                1
                            ],
                            "groups": 1,
                            "activation": "relu",
                            "use_bias": true,
                            "kernel_initializer": {
                                "module": "keras.initializers",
                                "class_name": "GlorotUniform",
                                "config": {
                                    "seed": null
                                },
                                "registered_name": null
                            },
                            "bias_initializer": {
                                "module": "keras.initializers",
                                "class_name": "Zeros",
                                "config": {},
                                "registered_name": null
                            },
                            "kernel_regularizer": null,
                            "bias_regularizer": null,
                            "activity_regularizer": null,
                            "kernel_constraint": null,
                            "bias_constraint": null
                        },
                        "name": "conv2d_5",
                        "inbound_nodes": [
                            {
                                "args": [
                                    {
                                        "class_name": "__keras_tensor__",
                                        "config": {
                                            "shape": [
                                                null,
                                                28,
                                                28,
                                                256
                                            ],
                                            "dtype": "float32",
                                            "keras_history": [
                                                "conv2d_4",
                                                0,
                                                0
                                            ]
                                        }
                                    }
                                ],
                                "kwargs": {}
                            }
                        ]
                    },
                    {
                        "class_name": "Conv2DTranspose",
                        "config": {
                            "name": "conv2d_transpose_2",
                            "trainable": true,
                            "dtype": {
                                "module": "keras",
                                "class_name": "DTypePolicy",
                                "config": {
                                    "name": "float32"
                                },
                                "registered_name": null
                            },
                            "filters": 128,
                            "kernel_size": [
                                2,
                                2
                            ],
                            "strides": [
                                2,
                                2
                            ],
                            "padding": "same",
                            "data_format": "channels_last",
                            "dilation_rate": [
                                1,
                                1
                            ],
                            "activation": "linear",
                            "use_bias": true,
                            "kernel_initializer": {
                                "module": "keras.initializers",
                                "class_name": "GlorotUniform",
                                "config": {
                                    "seed": null
                                },
                                "registered_name": null
                            },
                            "bias_initializer": {
                                "module": "keras.initializers",
                                "class_name": "Zeros",
                                "config": {},
                                "registered_name": null
                            },
                            "kernel_regularizer": null,
                            "bias_regularizer": null,
                            "activity_regularizer": null,
                            "kernel_constraint": null,
                            "bias_constraint": null
                        },
                        "name": "conv2d_transpose_2",
                        "inbound_nodes": [
                            {
                                "args": [
                                    {
                                        "class_name": "__keras_tensor__",
                                        "config": {
                                            "shape": [
                                                null,
                                                28,
                                                28,
                                                256
                                            ],
                                            "dtype": "float32",
                                            "keras_history": [
                                                "conv2d_5",
                                                0,
                                                0
                                            ]
                                        }
                                    }
                                ],
                                "kwargs": {}
                            }
                        ]
                    },
                    {
                        "class_name": "Resizing",
                        "config": {
                            "name": "resizing_2",
                            "trainable": true,
                            "dtype": {
                                "module": "keras",
                                "class_name": "DTypePolicy",
                                "config": {
                                    "name": "float32"
                                },
                                "registered_name": null
                            },
                            "height": 56,
                            "width": 56,
                            "interpolation": "bilinear",
                            "crop_to_aspect_ratio": false,
                            "pad_to_aspect_ratio": false,
                            "fill_mode": "constant",
                            "fill_value": 0,
                            "data_format": "channels_last"
                        },
                        "name": "resizing_2",
                        "inbound_nodes": [
                            {
                                "args": [
                                    {
                                        "class_name": "__keras_tensor__",
                                        "config": {
                                            "shape": [
                                                null,
                                                28,
                                                28,
                                                128
                                            ],
                                            "dtype": "float32",
                                            "keras_history": [
                                                "block2_pool",
                                                0,
                                                0
                                            ]
                                        }
                                    }
                                ],
                                "kwargs": {}
                            }
                        ]
                    },
                    {
                        "class_name": "Concatenate",
                        "config": {
                            "name": "concatenate_2",
                            "trainable": true,
                            "dtype": {
                                "module": "keras",
                                "class_name": "DTypePolicy",
                                "config": {
                                    "name": "float32"
                                },
                                "registered_name": null
                            },
                            "axis": -1
                        },
                        "name": "concatenate_2",
                        "inbound_nodes": [
                            {
                                "args": [
                                    [
                                        {
                                            "class_name": "__keras_tensor__",
                                            "config": {
                                                "shape": [
                                                    null,
                                                    56,
                                                    56,
                                                    128
                                                ],
                                                "dtype": "float32",
                                                "keras_history": [
                                                    "conv2d_transpose_2",
                                                    0,
                                                    0
                                                ]
                                            }
                                        },
                                        {
                                            "class_name": "__keras_tensor__",
                                            "config": {
                                                "shape": [
                                                    null,
                                                    56,
                                                    56,
                                                    128
                                                ],
                                                "dtype": "float32",
                                                "keras_history": [
                                                    "resizing_2",
                                                    0,
                                                    0
                                                ]
                                            }
                                        }
                                    ]
                                ],
                                "kwargs": {}
                            }
                        ]
                    },
                    {
                        "class_name": "Conv2D",
                        "config": {
                            "name": "conv2d_6",
                            "trainable": true,
                            "dtype": {
                                "module": "keras",
                                "class_name": "DTypePolicy",
                                "config": {
                                    "name": "float32"
                                },
                                "registered_name": null
                            },
                            "filters": 128,
                            "kernel_size": [
                                3,
                                3
                            ],
                            "strides": [
                                1,
                                1
                            ],
                            "padding": "same",
                            "data_format": "channels_last",
                            "dilation_rate": [
                                1,
                                1
                            ],
                            "groups": 1,
                            "activation": "relu",
                            "use_bias": true,
                            "kernel_initializer": {
                                "module": "keras.initializers",
                                "class_name": "GlorotUniform",
                                "config": {
                                    "seed": null
                                },
                                "registered_name": null
                            },
                            "bias_initializer": {
                                "module": "keras.initializers",
                                "class_name": "Zeros",
                                "config": {},
                                "registered_name": null
                            },
                            "kernel_regularizer": null,
                            "bias_regularizer": null,
                            "activity_regularizer": null,
                            "kernel_constraint": null,
                            "bias_constraint": null
                        },
                        "name": "conv2d_6",
                        "inbound_nodes": [
                            {
                                "args": [
                                    {
                                        "class_name": "__keras_tensor__",
                                        "config": {
                                            "shape": [
                                                null,
                                                56,
                                                56,
                                                256
                                            ],
                                            "dtype": "float32",
                                            "keras_history": [
                                                "concatenate_2",
                                                0,
                                                0
                                            ]
                                        }
                                    }
                                ],
                                "kwargs": {}
                            }
                        ]
                    },
                    {
                        "class_name": "Conv2D",
                        "config": {
                            "name": "conv2d_7",
                            "trainable": true,
                            "dtype": {
                                "module": "keras",
                                "class_name": "DTypePolicy",
                                "config": {
                                    "name": "float32"
                                },
                                "registered_name": null
                            },
                            "filters": 128,
                            "kernel_size": [
                                3,
                                3
                            ],
                            "strides": [
                                1,
                                1
                            ],
                            "padding": "same",
                            "data_format": "channels_last",
                            "dilation_rate": [
                                1,
                                1
                            ],
                            "groups": 1,
                            "activation": "relu",
                            "use_bias": true,
                            "kernel_initializer": {
                                "module": "keras.initializers",
                                "class_name": "GlorotUniform",
                                "config": {
                                    "seed": null
                                },
                                "registered_name": null
                            },
                            "bias_initializer": {
                                "module": "keras.initializers",
                                "class_name": "Zeros",
                                "config": {},
                                "registered_name": null
                            },
                            "kernel_regularizer": null,
                            "bias_regularizer": null,
                            "activity_regularizer": null,
                            "kernel_constraint": null,
                            "bias_constraint": null
                        },
                        "name": "conv2d_7",
                        "inbound_nodes": [
                            {
                                "args": [
                                    {
                                        "class_name": "__keras_tensor__",
                                        "config": {
                                            "shape": [
                                                null,
                                                56,
                                                56,
                                                128
                                            ],
                                            "dtype": "float32",
                                            "keras_history": [
                                                "conv2d_6",
                                                0,
                                                0
                                            ]
                                        }
                                    }
                                ],
                                "kwargs": {}
                            }
                        ]
                    },
                    {
                        "class_name": "Conv2DTranspose",
                        "config": {
                            "name": "conv2d_transpose_3",
                            "trainable": true,
                            "dtype": {
                                "module": "keras",
                                "class_name": "DTypePolicy",
                                "config": {
                                    "name": "float32"
                                },
                                "registered_name": null
                            },
                            "filters": 64,
                            "kernel_size": [
                                2,
                                2
                            ],
                            "strides": [
                                2,
                                2
                            ],
                            "padding": "same",
                            "data_format": "channels_last",
                            "dilation_rate": [
                                1,
                                1
                            ],
                            "activation": "linear",
                            "use_bias": true,
                            "kernel_initializer": {
                                "module": "keras.initializers",
                                "class_name": "GlorotUniform",
                                "config": {
                                    "seed": null
                                },
                                "registered_name": null
                            },
                            "bias_initializer": {
                                "module": "keras.initializers",
                                "class_name": "Zeros",
                                "config": {},
                                "registered_name": null
                            },
                            "kernel_regularizer": null,
                            "bias_regularizer": null,
                            "activity_regularizer": null,
                            "kernel_constraint": null,
                            "bias_constraint": null
                        },
                        "name": "conv2d_transpose_3",
                        "inbound_nodes": [
                            {
                                "args": [
                                    {
                                        "class_name": "__keras_tensor__",
                                        "config": {
                                            "shape": [
                                                null,
                                                56,
                                                56,
                                                128
                                            ],
                                            "dtype": "float32",
                                            "keras_history": [
                                                "conv2d_7",
                                                0,
                                                0
                                            ]
                                        }
                                    }
                                ],
                                "kwargs": {}
                            }
                        ]
                    },
                    {
                        "class_name": "Resizing",
                        "config": {
                            "name": "resizing_3",
                            "trainable": true,
                            "dtype": {
                                "module": "keras",
                                "class_name": "DTypePolicy",
                                "config": {
                                    "name": "float32"
                                },
                                "registered_name": null
                            },
                            "height": 112,
                            "width": 112,
                            "interpolation": "bilinear",
                            "crop_to_aspect_ratio": false,
                            "pad_to_aspect_ratio": false,
                            "fill_mode": "constant",
                            "fill_value": 0,
                            "data_format": "channels_last"
                        },
                        "name": "resizing_3",
                        "inbound_nodes": [
                            {
                                "args": [
                                    {
                                        "class_name": "__keras_tensor__",
                                        "config": {
                                            "shape": [
                                                null,
                                                56,
                                                56,
                                                64
                                            ],
                                            "dtype": "float32",
                                            "keras_history": [
                                                "block1_pool",
                                                0,
                                                0
                                            ]
                                        }
                                    }
                                ],
                                "kwargs": {}
                            }
                        ]
                    },
                    {
                        "class_name": "Concatenate",
                        "config": {
                            "name": "concatenate_3",
                            "trainable": true,
                            "dtype": {
                                "module": "keras",
                                "class_name": "DTypePolicy",
                                "config": {
                                    "name": "float32"
                                },
                                "registered_name": null
                            },
                            "axis": -1
                        },
                        "name": "concatenate_3",
                        "inbound_nodes": [
                            {
                                "args": [
                                    [
                                        {
                                            "class_name": "__keras_tensor__",
                                            "config": {
                                                "shape": [
                                                    null,
                                                    112,
                                                    112,
                                                    64
                                                ],
                                                "dtype": "float32",
                                                "keras_history": [
                                                    "conv2d_transpose_3",
                                                    0,
                                                    0
                                                ]
                                            }
                                        },
                                        {
                                            "class_name": "__keras_tensor__",
                                            "config": {
                                                "shape": [
                                                    null,
                                                    112,
                                                    112,
                                                    64
                                                ],
                                                "dtype": "float32",
                                                "keras_history": [
                                                    "resizing_3",
                                                    0,
                                                    0
                                                ]
                                            }
                                        }
                                    ]
                                ],
                                "kwargs": {}
                            }
                        ]
                    },
                    {
                        "class_name": "Conv2D",
                        "config": {
                            "name": "conv2d_8",
                            "trainable": true,
                            "dtype": {
                                "module": "keras",
                                "class_name": "DTypePolicy",
                                "config": {
                                    "name": "float32"
                                },
                                "registered_name": null
                            },
                            "filters": 64,
                            "kernel_size": [
                                3,
                                3
                            ],
                            "strides": [
                                1,
                                1
                            ],
                            "padding": "same",
                            "data_format": "channels_last",
                            "dilation_rate": [
                                1,
                                1
                            ],
                            "groups": 1,
                            "activation": "relu",
                            "use_bias": true,
                            "kernel_initializer": {
                                "module": "keras.initializers",
                                "class_name": "GlorotUniform",
                                "config": {
                                    "seed": null
                                },
                                "registered_name": null
                            },
                            "bias_initializer": {
                                "module": "keras.initializers",
                                "class_name": "Zeros",
                                "config": {},
                                "registered_name": null
                            },
                            "kernel_regularizer": null,
                            "bias_regularizer": null,
                            "activity_regularizer": null,
                            "kernel_constraint": null,
                            "bias_constraint": null
                        },
                        "name": "conv2d_8",
                        "inbound_nodes": [
                            {
                                "args": [
                                    {
                                        "class_name": "__keras_tensor__",
                                        "config": {
                                            "shape": [
                                                null,
                                                112,
                                                112,
                                                128
                                            ],
                                            "dtype": "float32",
                                            "keras_history": [
                                                "concatenate_3",
                                                0,
                                                0
                                            ]
                                        }
                                    }
                                ],
                                "kwargs": {}
                            }
                        ]
                    },
                    {
                        "class_name": "Conv2D",
                        "config": {
                            "name": "conv2d_9",
                            "trainable": true,
                            "dtype": {
                                "module": "keras",
                                "class_name": "DTypePolicy",
                                "config": {
                                    "name": "float32"
                                },
                                "registered_name": null
                            },
                            "filters": 64,
                            "kernel_size": [
                                3,
                                3
                            ],
                            "strides": [
                                1,
                                1
                            ],
                            "padding": "same",
                            "data_format": "channels_last",
                            "dilation_rate": [
                                1,
                                1
                            ],
                            "groups": 1,
                            "activation": "relu",
                            "use_bias": true,
                            "kernel_initializer": {
                                "module": "keras.initializers",
                                "class_name": "GlorotUniform",
                                "config": {
                                    "seed": null
                                },
                                "registered_name": null
                            },
                            "bias_initializer": {
                                "module": "keras.initializers",
                                "class_name": "Zeros",
                                "config": {},
                                "registered_name": null
                            },
                            "kernel_regularizer": null,
                            "bias_regularizer": null,
                            "activity_regularizer": null,
                            "kernel_constraint": null,
                            "bias_constraint": null
                        },
                        "name": "conv2d_9",
                        "inbound_nodes": [
                            {
                                "args": [
                                    {
                                        "class_name": "__keras_tensor__",
                                        "config": {
                                            "shape": [
                                                null,
                                                112,
                                                112,
                                                64
                                            ],
                                            "dtype": "float32",
                                            "keras_history": [
                                                "conv2d_8",
                                                0,
                                                0
                                            ]
                                        }
                                    }
                                ],
                                "kwargs": {}
                            }
                        ]
                    },
                    {
                        "class_name": "Conv2D",
                        "config": {
                            "name": "conv2d_10",
                            "trainable": true,
                            "dtype": {
                                "module": "keras",
                                "class_name": "DTypePolicy",
                                "config": {
                                    "name": "float32"
                                },
                                "registered_name": null
                            },
                            "filters": 3,
                            "kernel_size": [
                                1,
                                1
                            ],
                            "strides": [
                                1,
                                1
                            ],
                            "padding": "same",
                            "data_format": "channels_last",
                            "dilation_rate": [
                                1,
                                1
                            ],
                            "groups": 1,
                            "activation": "sigmoid",
                            "use_bias": true,
                            "kernel_initializer": {
                                "module": "keras.initializers",
                                "class_name": "GlorotUniform",
                                "config": {
                                    "seed": null
                                },
                                "registered_name": null
                            },
                            "bias_initializer": {
                                "module": "keras.initializers",
                                "class_name": "Zeros",
                                "config": {},
                                "registered_name": null
                            },
                            "kernel_regularizer": null,
                            "bias_regularizer": null,
                            "activity_regularizer": null,
                            "kernel_constraint": null,
                            "bias_constraint": null
                        },
                        "name": "conv2d_10",
                        "inbound_nodes": [
                            {
                                "args": [
                                    {
                                        "class_name": "__keras_tensor__",
                                        "config": {
                                            "shape": [
                                                null,
                                                112,
                                                112,
                                                64
                                            ],
                                            "dtype": "float32",
                                            "keras_history": [
                                                "conv2d_9",
                                                0,
                                                0
                                            ]
                                        }
                                    }
                                ],
                                "kwargs": {}
                            }
                        ]
                    }
                ],
                "input_layers": [
                    [
                        "input_layer_1",
                        0,
                        0
                    ]
                ],
                "output_layers": [
                    [
                        "conv2d_10",
                        0,
                        0
                    ]
                ]
            }
        },
        "training_config": {
            "loss": "MeanSquaredError",
            "loss_weights": null,
            "metrics": null,
            "weighted_metrics": null,
            "run_eagerly": false,
            "steps_per_execution": 1,
            "jit_compile": true,
            "optimizer_config": {
                "class_name": "Adam",
                "config": {
                    "name": "adam",
                    "learning_rate": 0.000009999999747378752,
                    "weight_decay": null,
                    "clipnorm": null,
                    "global_clipnorm": null,
                    "clipvalue": null,
                    "use_ema": false,
                    "ema_momentum": 0.99,
                    "ema_overwrite_frequency": null,
                    "loss_scale_factor": null,
                    "gradient_accumulation_steps": null,
                    "beta_1": 0.9,
                    "beta_2": 0.999,
                    "epsilon": 1e-7,
                    "amsgrad": false
                }
            }
        }
    },
    "weightsManifest": [
        {
            "paths": [
                "group1-shard1of40.bin",
                "group1-shard2of40.bin",
                "group1-shard3of40.bin",
                "group1-shard4of40.bin",
                "group1-shard5of40.bin",
                "group1-shard6of40.bin",
                "group1-shard7of40.bin",
                "group1-shard8of40.bin",
                "group1-shard9of40.bin",
                "group1-shard10of40.bin",
                "group1-shard11of40.bin",
                "group1-shard12of40.bin",
                "group1-shard13of40.bin",
                "group1-shard14of40.bin",
                "group1-shard15of40.bin",
                "group1-shard16of40.bin",
                "group1-shard17of40.bin",
                "group1-shard18of40.bin",
                "group1-shard19of40.bin",
                "group1-shard20of40.bin",
                "group1-shard21of40.bin",
                "group1-shard22of40.bin",
                "group1-shard23of40.bin",
                "group1-shard24of40.bin",
                "group1-shard25of40.bin",
                "group1-shard26of40.bin",
                "group1-shard27of40.bin",
                "group1-shard28of40.bin",
                "group1-shard29of40.bin",
                "group1-shard30of40.bin",
                "group1-shard31of40.bin",
                "group1-shard32of40.bin",
                "group1-shard33of40.bin",
                "group1-shard34of40.bin",
                "group1-shard35of40.bin",
                "group1-shard36of40.bin",
                "group1-shard37of40.bin",
                "group1-shard38of40.bin",
                "group1-shard39of40.bin",
                "group1-shard40of40.bin"
            ],
            "weights": [
                {
                    "name": "block1_conv1/kernel",
                    "shape": [
                        3,
                        3,
                        3,
                        64
                    ],
                    "dtype": "float32"
                },
                {
                    "name": "block1_conv1/bias",
                    "shape": [
                        64
                    ],
                    "dtype": "float32"
                },
                {
                    "name": "block1_conv2/kernel",
                    "shape": [
                        3,
                        3,
                        64,
                        64
                    ],
                    "dtype": "float32"
                },
                {
                    "name": "block1_conv2/bias",
                    "shape": [
                        64
                    ],
                    "dtype": "float32"
                },
                {
                    "name": "block2_conv1/kernel",
                    "shape": [
                        3,
                        3,
                        64,
                        128
                    ],
                    "dtype": "float32"
                },
                {
                    "name": "block2_conv1/bias",
                    "shape": [
                        128
                    ],
                    "dtype": "float32"
                },
                {
                    "name": "block2_conv2/kernel",
                    "shape": [
                        3,
                        3,
                        128,
                        128
                    ],
                    "dtype": "float32"
                },
                {
                    "name": "block2_conv2/bias",
                    "shape": [
                        128
                    ],
                    "dtype": "float32"
                },
                {
                    "name": "block3_conv1/kernel",
                    "shape": [
                        3,
                        3,
                        128,
                        256
                    ],
                    "dtype": "float32"
                },
                {
                    "name": "block3_conv1/bias",
                    "shape": [
                        256
                    ],
                    "dtype": "float32"
                },
                {
                    "name": "block3_conv2/kernel",
                    "shape": [
                        3,
                        3,
                        256,
                        256
                    ],
                    "dtype": "float32"
                },
                {
                    "name": "block3_conv2/bias",
                    "shape": [
                        256
                    ],
                    "dtype": "float32"
                },
                {
                    "name": "block3_conv3/kernel",
                    "shape": [
                        3,
                        3,
                        256,
                        256
                    ],
                    "dtype": "float32"
                },
                {
                    "name": "block3_conv3/bias",
                    "shape": [
                        256
                    ],
                    "dtype": "float32"
                },
                {
                    "name": "block4_conv1/kernel",
                    "shape": [
                        3,
                        3,
                        256,
                        512
                    ],
                    "dtype": "float32"
                },
                {
                    "name": "block4_conv1/bias",
                    "shape": [
                        512
                    ],
                    "dtype": "float32"
                },
                {
                    "name": "block4_conv2/kernel",
                    "shape": [
                        3,
                        3,
                        512,
                        512
                    ],
                    "dtype": "float32"
                },
                {
                    "name": "block4_conv2/bias",
                    "shape": [
                        512
                    ],
                    "dtype": "float32"
                },
                {
                    "name": "block4_conv3/kernel",
                    "shape": [
                        3,
                        3,
                        512,
                        512
                    ],
                    "dtype": "float32"
                },
                {
                    "name": "block4_conv3/bias",
                    "shape": [
                        512
                    ],
                    "dtype": "float32"
                },
                {
                    "name": "block5_conv1/kernel",
                    "shape": [
                        3,
                        3,
                        512,
                        512
                    ],
                    "dtype": "float32"
                },
                {
                    "name": "block5_conv1/bias",
                    "shape": [
                        512
                    ],
                    "dtype": "float32"
                },
                {
                    "name": "block5_conv2/kernel",
                    "shape": [
                        3,
                        3,
                        512,
                        512
                    ],
                    "dtype": "float32"
                },
                {
                    "name": "block5_conv2/bias",
                    "shape": [
                        512
                    ],
                    "dtype": "float32"
                },
                {
                    "name": "block5_conv3/kernel",
                    "shape": [
                        3,
                        3,
                        512,
                        512
                    ],
                    "dtype": "float32"
                },
                {
                    "name": "block5_conv3/bias",
                    "shape": [
                        512
                    ],
                    "dtype": "float32"
                },
                {
                    "name": "conv2d/kernel",
                    "shape": [
                        3,
                        3,
                        512,
                        1024
                    ],
                    "dtype": "float32"
                },
                {
                    "name": "conv2d/bias",
                    "shape": [
                        1024
                    ],
                    "dtype": "float32"
                },
                {
                    "name": "conv2d_1/kernel",
                    "shape": [
                        3,
                        3,
                        1024,
                        1024
                    ],
                    "dtype": "float32"
                },
                {
                    "name": "conv2d_1/bias",
                    "shape": [
                        1024
                    ],
                    "dtype": "float32"
                },
                {
                    "name": "conv2d_10/kernel",
                    "shape": [
                        1,
                        1,
                        64,
                        3
                    ],
                    "dtype": "float32"
                },
                {
                    "name": "conv2d_10/bias",
                    "shape": [
                        3
                    ],
                    "dtype": "float32"
                },
                {
                    "name": "conv2d_2/kernel",
                    "shape": [
                        3,
                        3,
                        1024,
                        512
                    ],
                    "dtype": "float32"
                },
                {
                    "name": "conv2d_2/bias",
                    "shape": [
                        512
                    ],
                    "dtype": "float32"
                },
                {
                    "name": "conv2d_3/kernel",
                    "shape": [
                        3,
                        3,
                        512,
                        512
                    ],
                    "dtype": "float32"
                },
                {
                    "name": "conv2d_3/bias",
                    "shape": [
                        512
                    ],
                    "dtype": "float32"
                },
                {
                    "name": "conv2d_4/kernel",
                    "shape": [
                        3,
                        3,
                        512,
                        256
                    ],
                    "dtype": "float32"
                },
                {
                    "name": "conv2d_4/bias",
                    "shape": [
                        256
                    ],
                    "dtype": "float32"
                },
                {
                    "name": "conv2d_5/kernel",
                    "shape": [
                        3,
                        3,
                        256,
                        256
                    ],
                    "dtype": "float32"
                },
                {
                    "name": "conv2d_5/bias",
                    "shape": [
                        256
                    ],
                    "dtype": "float32"
                },
                {
                    "name": "conv2d_6/kernel",
                    "shape": [
                        3,
                        3,
                        256,
                        128
                    ],
                    "dtype": "float32"
                },
                {
                    "name": "conv2d_6/bias",
                    "shape": [
                        128
                    ],
                    "dtype": "float32"
                },
                {
                    "name": "conv2d_7/kernel",
                    "shape": [
                        3,
                        3,
                        128,
                        128
                    ],
                    "dtype": "float32"
                },
                {
                    "name": "conv2d_7/bias",
                    "shape": [
                        128
                    ],
                    "dtype": "float32"
                },
                {
                    "name": "conv2d_8/kernel",
                    "shape": [
                        3,
                        3,
                        128,
                        64
                    ],
                    "dtype": "float32"
                },
                {
                    "name": "conv2d_8/bias",
                    "shape": [
                        64
                    ],
                    "dtype": "float32"
                },
                {
                    "name": "conv2d_9/kernel",
                    "shape": [
                        3,
                        3,
                        64,
                        64
                    ],
                    "dtype": "float32"
                },
                {
                    "name": "conv2d_9/bias",
                    "shape": [
                        64
                    ],
                    "dtype": "float32"
                },
                {
                    "name": "conv2d_transpose/kernel",
                    "shape": [
                        2,
                        2,
                        512,
                        1024
                    ],
                    "dtype": "float32"
                },
                {
                    "name": "conv2d_transpose/bias",
                    "shape": [
                        512
                    ],
                    "dtype": "float32"
                },
                {
                    "name": "conv2d_transpose_1/kernel",
                    "shape": [
                        2,
                        2,
                        256,
                        512
                    ],
                    "dtype": "float32"
                },
                {
                    "name": "conv2d_transpose_1/bias",
                    "shape": [
                        256
                    ],
                    "dtype": "float32"
                },
                {
                    "name": "conv2d_transpose_2/kernel",
                    "shape": [
                        2,
                        2,
                        128,
                        256
                    ],
                    "dtype": "float32"
                },
                {
                    "name": "conv2d_transpose_2/bias",
                    "shape": [
                        128
                    ],
                    "dtype": "float32"
                },
                {
                    "name": "conv2d_transpose_3/kernel",
                    "shape": [
                        2,
                        2,
                        64,
                        128
                    ],
                    "dtype": "float32"
                },
                {
                    "name": "conv2d_transpose_3/bias",
                    "shape": [
                        64
                    ],
                    "dtype": "float32"
                }
            ]
        }
    ]
}